p1/models/model.ckpt (torch, 16799 bytes, 3 tensors)

layers.0.weight f4 [32, 117]
000000 86 f5 06 3d 91 dd 85 bb 0f fa b9 bd a0 27 83 bc
       0.032948993 -0.0040852507 -0.09080898 -0.016010106
000010 a7 cd 47 bd ca 45 be bd d9 ff 7e bd 81 a9 08 3d
       -0.04878011 -0.09290655 -0.062255714 0.033364777
000020 41 98 8a bc b8 8e b3 bc 16 5f 95 3d e8 24 76 bc
       -0.016918303 -0.02191864 0.07293527 -0.015023448
000030 3e ca 0c bd 13 72 d9 3c 8b 8c fd bc 29 9e 99 3c
       -0.03437256 0.026543653 -0.030950805 0.018752174
000040 0b 6f 7a 3d bf 78 b4 bd 0c 3a 51 bd 0c 3b 6e bd
       0.061141055 -0.08812093 -0.05108075 -0.05816178
000050 e1 ae b8 bd e2 de af bd f8 7a ca bd 72 66 14 bd
       -0.090177305 -0.085874334 -0.09886736 -0.036230512
000060 75 16 92 bd b3 5c 9f 3d 70 bf 0d 3d 2e 4a 1a 3d
       -0.071331896 0.07781353 0.034606397 0.0376684
000070 76 54 26 3d c9 64 a7 bd 81 80 40 3d 0e 38 81 3d
       0.040607892 -0.0817352 0.04699755 0.0630952
000080 c7 42 1e bd 38 d9 19 3d 6a 13 9f bc 76 3b c0 bd
       -0.038637903 0.03756067 -0.019418437 -0.09386341
000090 83 9d b2 bc 0d dd a5 3d 95 40 62 3b 32 bb a9 bd
       -0.021803623 0.08098803 0.0034523357 -0.08287658
0000a0 53 08 04 bd bc 8d 10 bd 67 f6 3c bd eb da 89 bd
       -0.0322345 -0.03529142 -0.046133425 -0.067312084
0000b0 9a 63 8d bd 75 09 21 bd 95 d1 20 bc cc f8 3f ba
       -0.06903763 -0.03931566 -0.009815593 -0.00073231454
0000c0 70 4e 5f bd f6 69 22 3d 10 8b a0 3d 02 c2 63 3d
       -0.054518163 0.039651833 0.07839024 0.055604942
0000d0 52 25 26 bd 1f d9 92 3d 48 19 30 bb 00 e8 87 bc
       -0.040562935 0.07170319 -0.0026870538 -0.016590118
0000e0 17 ab ea 3c 9c 7c 1d 3c 0a d2 5c bd 8b 69 70 3d
       0.028646035 0.009612229 -0.053911246 0.058694404
0000f0 69 2e ad bd 47 f8 8d bd 95 70 0a 3d 44 47 3e bd
       -0.08456118 -0.06932121 0.033798773 -0.046454683
000100 53 ba 33 3d 07 09 b4 bc 69 11 80 3d fe 61 5b bd
       0.043878864 -0.02197696 0.06253321 -0.05356025
000110 f5 bb e0 3c e8 7d 93 bc f7 a4 f9 bc 1f 96 1c bd
       0.027433375 -0.018004373 -0.03047417 -0.038229104
000120 ca 05 16 bd ef bd 2c 3d 0e fe c1 bd d4 db 0e 3d
       -0.036626615 0.042173322 -0.09472285 0.034877613
000130 34 5f 87 bd 0c eb 46 3d 57 26 4e bd b6 ff 58 3d
       -0.066099554 0.048564002 -0.050329532 0.05297824
000140 40 a1 51 3c da 9a 68 3c b1 b2 f4 bb 44 cb cd bd
       0.012794793 0.014197076 -0.0074675907 -0.100485355
000150 51 af a6 bd 62 16 30 3d 02 17 94 bd fd 77 52 3d
       -0.08138908 0.042990096 -0.07230951 0.05138396
000160 29 8a a2 3d 0a 49 52 bd 17 28 65 bd ab 43 9e bd
       0.07936508 -0.051339187 -0.055946436 -0.077277504
000170 eb b7 31 3d cc 8d a1 3d e2 b1 ea bb d3 cb 64 bc
       0.04338829 0.07888374 -0.0071623186 -0.013964611
000180 41 21 55 3d eb 34 03 bd bc e7 ae bd e6 dc e3 3c
       0.052033667 -0.03203289 -0.085402936 0.027815294
000190 f6 33 9a 3c 20 8e 94 3d 1c 39 7e 3d f6 e1 91 bd
       0.018823605 0.07253671 0.062066182 -0.07123177
0001a0 9c b0 9a bc e2 9d 4f 3c 79 a2 c4 3a 21 ad 50 bd
       -0.018883042 0.01267192 0.0015002034 -0.05094636
0001b0 24 ea 67 bd 55 00 79 bd b0 bd 3b bd 89 91 a2 bd
       -0.05661978 -0.060791332 -0.045835197 -0.07937915
0001c0 a6 33 68 bd 56 a0 26 bd b7 b5 e6 3c 36 3a b3 bd
       -0.05668988 -0.040680252 0.02816282 -0.08751337
0001d0 a6 7a 64 bd d0 63 84 3d ea bb 1c bd 19 98 a5 3d
       -0.05578103 0.0646435 -0.038265146 0.08085651
0001e0 0a ae 3d 3d 4e 06 1d 3c 75 83 ca 3b e9 2b 60 3d
       0.046308555 0.009584023 0.0061802217 0.054729376
0001f0 5d fe 8a bc 9e ba 40 bd 96 28 dc ba f0 a5 26 3c
       -0.016966993 -0.047052972 -0.0016796764 0.0101713985
000200 de 82 4e bc d7 6c c5 3d 19 d1 5b 3c b8 8c a6 bb
       -0.012604443 0.096399 0.013416552 -0.005082693
000210 ca 8b c6 3b 86 82 e6 bc 81 a1 4e 3d 16 ec 88 3d
       0.0060591446 -0.02813841 0.05044699 0.06685655
000220 fb a4 d8 3c 2b 90 1c bb 2c d6 74 3d 58 12 30 3d
       0.026445856 -0.0023889642 0.059774563 0.042986244
000230 65 1a ab 3d 87 b2 0d bd e1 d5 91 3d a8 02 6a 3c
       0.08354644 -0.034594085 0.07120872 0.01428286
000240 8c f5 9a 3d 1f 26 02 3c b0 36 8f 3b fc 32 46 bd
       0.075663656 0.007943659 0.004370533 -0.048388466
000250 1d 30 6e bc 17 b9 79 bd 2a fa 5c 3d 01 6c 22 3b
       -0.014537838 -0.06096753 0.053949513 0.0024783614
000260 31 28 bc 3d d0 d5 5b bc 37 ef 63 3c 14 6e c1 3d
       0.091873534 -0.013417676 0.013912014 0.09444824
000270 ea fd a9 3d bc ff 37 3d 23 55 c5 3b bc d2 3d bc
       0.083003834 0.04492162 0.006022112 -0.0115858875
000280 2d a8 06 3d c2 46 14 bd 70 b7 af 3d 96 99 9f 3d
       0.03287523 -0.036200292 0.0857991 0.07792966
000290 f9 80 32 bd dc aa ba bc 1e ca ac bd b3 98 9d 3d
       -0.04358003 -0.02278655 -0.08436988 0.07695141
0002a0 30 48 c2 3d 93 64 27 3d 3c fa b4 bc 61 fe 96 bc
       0.09486425 0.0408674 -0.022091977 -0.018431844
0002b0 16 f1 be bc 9b 60 a6 3d 71 4c c6 3d ee 76 25 bc
       -0.023308318 0.08123895 0.09682549 -0.010099156
0002c0 ad 3f a8 3c f0 ca 87 3d e5 7f 34 bd b8 93 0e bd
       0.020538175 0.06630504 -0.044067282 -0.034808844
0002d0 2d b0 fe 3c d4 51 2c 3c 80 c9 65 3b e9 ba 9e 3d
       0.031089867 0.010517556 0.003506273 0.07750494
0002e0 fe e6 9f 3d 3d 9d 0a 3d 3d d0 c8 3d b8 ef 60 bc
       0.0780773 0.03384136 0.09805343 -0.013729028
0002f0 fb b4 3c 3c c4 b5 8a bd a3 a6 f9 3b 73 20 a4 bd
       0.0115177585 -0.0677295 0.0076187416 -0.08014002
000300 6b 96 be 3d aa 92 ab 3d 8a 1f 3e 3c 00 f7 9e bc
       0.09306034 0.08377583 0.011604199 -0.019404888
000310 59 23 75 bb cc 22 c4 bc 24 89 a8 3d 6b d6 c6 3d
       -0.0037405102 -0.023942374 0.082292825 0.09708866
000320 15 04 16 3d d1 84 b9 3d 0b c5 b3 bc 9e b0 84 ba
       0.036624987 0.09058536 -0.021944543 -0.0010123437
000330 11 68 7d bd 83 03 7d 3d 4b 7e 26 bd 40 fd 10 bd
       -0.061866824 0.061770927 -0.040647786 -0.035397768
000340 05 ed b3 3d df 62 c1 3d e3 e4 c7 3d cd 2d 88 3d
       0.08785442 0.09442686 0.097604536 0.06649361
000350 b6 37 99 bd 5e a3 9e bc 07 34 87 3d 87 63 a8 3d
       -0.07481329 -0.019365009 0.0660172 0.08222108
000360 5d cd 89 bd f1 a0 42 3b a7 b7 27 3d 05 6f 85 3d
       -0.06728623 0.002969798 0.04094663 0.06515316
000370 ef d4 23 bd d4 43 74 3d 44 7c 37 bc 44 78 98 bd
       -0.03999799 0.059635 -0.011199061 -0.07444814
000380 85 5e a0 bc ee 1b 92 bd 95 6c 60 3d 1d dc 8c 3d
       -0.01957632 -0.071342334 0.054791052 0.06877921
000390 74 3d e1 3c 82 a8 14 bc e7 8b 93 3d 21 af e7 ba
       0.027495123 -0.0090733785 0.07204419 -0.0017676094
0003a0 60 7a c3 3d 22 e5 46 bd d5 2d 51 bc ae c0 6e bd
       0.095448256 -0.04855836 -0.012767275 -0.058289222
0003b0 4f 21 4e bd eb c7 36 bd d5 73 56 3d 66 9c 79 3c
       -0.050324734 -0.04462425 0.05235656 0.015235042
0003c0 e2 be 61 bc b7 2b d7 bc 8b a1 51 3d 33 85 ec bc
       -0.01377842 -0.026265962 0.05117945 -0.028872108
0003d0 8b 50 34 3d 9f 3a 1a 3d 55 87 b1 bd 62 07 a8 3c
       0.044022124 0.03765356 -0.08668391 0.020511333
0003e0 2b b5 b1 3d 40 b1 89 3d eb 48 06 bd 04 4a 63 bd
       0.08677133 0.06723261 -0.032784384 -0.05549051
0003f0 55 4b 34 bd bf 35 e7 bb 30 d8 91 3d 24 87 31 bc
       -0.044017155 -0.0070559676 0.071213126 -0.010835443

layers.0.bias f4 [32]
000000 1a 3b 22 bd 0a de e7 bc 42 5e 91 3d f2 ca b2 3d
       -0.039607145 -0.028304119 0.070980564 0.08730115
000010 68 9b 8b 3d d4 85 a6 3d fb a7 5b bd ce cf 2c bd
       0.06816751 0.081309944 -0.053626996 -0.042190365
000020 ce 12 86 bd 5f 6a a5 3d a8 d9 aa 3d ed 73 0f bd
       -0.065465555 0.08076929 0.08342296 -0.035022665
000030 94 29 1a 3c 96 30 9a 3d 12 e7 23 3d 6b d4 42 bc
       0.009409327 0.07528798 0.040015288 -0.011891465
000040 c8 f7 3b bd f8 71 66 bc ad 94 85 bd bd e6 96 3d
       -0.0458906 -0.014065258 -0.06522498 0.073682286
000050 2e 35 99 3d 06 d0 82 bc 64 ef 2f 3d b4 6e 9b bb
       0.07480846 -0.015968334 0.04295291 -0.0047434215
000060 99 da c5 3b b0 16 5f 3d 22 68 08 bd 9c 1c 4b bd
       0.0060380218 0.054464996 -0.033302434 -0.04958783
000070 73 33 88 3d ec 8a 26 bd fb 8c b2 bd 8e e2 90 3d
       0.06650438 -0.04065983 -0.08718296 0.07074462

layers.2.weight f4 [1, 32]
000000 9e 49 cc bd 33 3b 9b 3c e3 d3 0d 3e 6b 1e 76 3c
       -0.09974979 0.018949127 0.1385036 0.015021901
000010 b2 47 fd bd 0f 96 5b 3d 37 b9 96 3d 24 43 96 bd
       -0.123671904 0.053609904 0.07359546 -0.07337025
000020 70 42 d6 bd b5 02 e9 bd 00 35 3b 3e 36 e1 9d 3d
       -0.10461891 -0.113774695 0.18281937 0.07708971
000030 48 ff ae 3b c4 24 aa bb 92 5f 0f 3d 72 69 e1 ba
       0.0053404905 -0.005192371 0.035003252 -0.0017197563
000040 17 35 cd 3c 07 12 df 3d 43 b7 bb 3d b4 53 95 bd
       0.02504973 0.1089211 0.09165814 -0.07291356
000050 52 12 11 bd 16 84 10 3d 4c e9 1a be e5 98 32 3e
       -0.035417862 0.035282217 -0.15128058 0.17441137
000060 9f b4 86 3d ba 75 1c bd 1b 7a b6 3d 58 40 00 3e
       0.065774195 -0.03819821 0.089100085 0.12524545
000070 75 6f df b8 15 d9 aa bc 85 af 24 be 32 94 e5 bc
       -0.00010654229 -0.020855466 -0.1608258 -0.028024767
