p1/models/model.ckpt (torch, 10199 bytes, 5 tensors)

layers.0.weight f4 [16, 117]
-0.062248506 0.038258836 0.04024992 0.07800707 -0.091264196 -0.054244146 0.063662715 0.06992662
0.041507468 -0.04340458 0.033363573 0.024550525 -0.014400836 0.0552787 -0.011775327 0.01785878
-0.05886834 -0.0072405324 -0.061956428 -0.027701933 0.063603625 -0.087945014 -0.046724424 -0.0659241
-0.045804385 0.002453493 0.05621599 0.075298585 -0.04903459 -0.06807566 0.026983347 -0.02293949
-0.04362623 0.042776607 -0.03561415 -0.002037988 0.0562826 0.09075897 0.04455863 -0.025719361
0.032169722 -0.06912552 0.045540225 -0.026528483 -0.08043636 -0.04319501 -0.038050637 -0.04114304
-0.038046643 0.06441442 -0.07737601 -0.05450933 -0.06451103 -0.08511764 0.08003707 -0.08732591
0.021866783 0.053839132 0.07468322 0.011269532 0.005361104 0.010149821 -0.011832382 3.7764246e-05
-0.04917821 0.050154038 -0.052736156 -0.009571223 -0.014770457 0.046764396 0.022023493 0.053862173
0.04442746 -0.060958177 0.008135601 -0.07418411 -0.01208395 -0.044891838 0.07587094 0.037309207
0.07442843 -0.07876622 0.060165003 0.087396935 -0.012119184 0.06126675 -0.0513179 -0.08820607
-0.014989157 -0.01645127 -0.06856441 -0.041840274 0.01764361 0.04522819 0.01383544 0.030899215
0.060074236 -0.031960405 0.011275191 -0.036954556 -0.020980008 -0.06434882 -0.04322252 0.03519642
0.025750931 -0.045638517 -0.02151035 0.05330062 -0.0034022345 0.023335125 0.0014881694 -0.010257763
-0.04899356 -0.0831259 0.0588213 0.026409425 0.07659623 -0.10535506 0.06524669 0.0046363226
0.06859831 -0.08561284 0.037858456 -0.06215259 -0.08771494 -0.08639883 0.078240804 0.018860841
0.051709514 -0.08575732 0.03271528 -0.0059595476 -0.054471593 -0.054007515 -0.07771522 -0.004596232
-0.01887011 -0.090079345 0.085319676 -0.06599238 -0.029048149 0.08911938 0.085782886 0.014869183
0.013356722 0.006288587 0.044667598 0.009587645 0.013476587 0.005378327 -0.017087383 -0.065520994
-0.06439344 -0.07069518 -0.041476678 -0.042599548 0.009210069 -0.06627293 0.035260014 0.07917899
0.07319406 -0.0801545 0.043863624 0.09323535 0.05662887 0.00021488781 -0.069299 0.012814546
0.0018043126 0.015973637 0.071022846 0.007729641 0.071496606 0.020175176 -0.019849164 -0.005997036
-0.039300278 -0.0540243 0.019447537 0.06903403 -0.017381912 0.083129115 -0.077270515 0.070596285
-0.07067524 0.034972597 0.08192647 -0.004415161 0.011394499 0.06856361 0.09305115 -0.007831962
0.013458382 0.06206186 0.049870867 0.08920161 0.098824635 0.058068972 -0.07583271 0.08045566
-0.07460502 -0.02776189 -0.076636694 0.0046413695 -0.031229325 0.08891947 -0.08287139 -0.009214183
0.07060035 0.10204824 0.093364686 0.036639296 -0.07391883 -0.08514529 -0.036334686 0.0013678893
0.04272399 -0.0046645855 -0.065752834 0.09132472 0.03494482 0.06541067 0.07524711 -0.06347011
-0.055487484 0.013998385 0.0008401358 -0.033025578 0.0073104273 -0.02542579 0.022294136 -0.052390166
-0.05341853 -0.0017188664 0.05874985 -0.04265975 0.01278481 0.008383904 0.024097575 -0.092442855
0.09151196 0.067539416 -0.07790025 -0.05794219 0.0026805375 -0.006739533 -0.0023984287 0.012680471
0.016967228 0.06267308 0.041019417 -0.08673051 -0.020024264 0.06329571 -0.04282767 -0.061697837
00000000: 4af8 7ebd 4cb5 1c3d 1add 243d 2cc2 9f3d
00000010: b9e8 babd 1c2f 5ebd 9961 823d b035 8f3d
00000020: bc03 2a3d 00c9 31bd 3ea8 083d 2f1e c93c
00000030: 7cf1 6bbc eb6b 623d 4ded 40bc 944c 923c
00000040: ee1f 71bd fd41 edbb 06c6 7dbd 2aef e2bc
00000050: 9e42 823d 841c b4bd 1c62 3fbd 3703 87bd
00000060: 619d 3bbd c8ca 203b bd42 663d 2536 9a3d
00000070: 7fd8 48bd 406b 8bbd 2e0c dd3c 99eb bbbc
00000080: 6bb1 32bd 8636 2f3d 25e0 11bd c48f 05bb
00000090: 9588 663d d7df b93d 1c83 363d 69b1 d2bc
000000a0: 66c4 033d ae91 8dbd 6388 3a3d 4352 d9bc
000000b0: d1bb a4bd 40ed 30bd fcda 1bbd 9b85 28bd
000000c0: ccd6 1bbd b5eb 833d 5077 9ebd 2d45 5fbd
000000d0: 5c1e 84bd 2852 aebd 7aea a33d edd7 b2bd
000000e0: f821 b33c 6c86 5c3d 84f3 983d d8a3 383c
000000f0: 33ac af3b 6f4b 263c 9bdc 41bc 0d65 1e38
00000100: 176f 49bd 526e 4d3d de01 58bd 9ed0 1cbc
00000110: c9ff 71bc 068c 3f3d 9d6a b43c 959e 5c3d
00000120: 91f9 353d 48af 79bd 2f4b 053c d7ed 97bd
00000130: c3fb 45bc 81e0 37bd 3962 9b3d 8ad1 183d
00000140: ef6d 983d 2f50 a1bd 946f 763d 2afd b23d
00000150: 8b8f 46bc d8f2 7a3d b832 52bd 62a5 b4bd
00000160: 1595 75bc d0c4 86bc 7f6b 8cbd b560 2bbd
00000170: 5589 903c 3241 393d 0bae 623c 5a20 fd3c
00000180: 6710 763d eae8 02bd 94bb 383c a95d 17bd
00000190: 44de abbc 50c9 83bd 190a 31bd 1f2a 103d
000001a0: 9ef3 d23c 74ef 3abd 7936 b0bc c051 5a3d
000001b0: 06f8 5ebb 4e29 bf3c ae0e c33a 2d10 28bc
000001c0: 79ad 48bd e93d aabd 9aee 703d 9458 d83c
000001d0: 7cde 9c3d 65c4 d7bd 0ea0 853d 4bec 973b
000001e0: 457d 8c3d c955 afbd 7811 1b3d b793 7ebd
000001f0: e4a3 b3bd dff1 b0bd b73c a03d 0d82 9a3c
00000200: 5bcd 533d 89a1 afbd 7500 063d 4f48 c3bb
00000210: 9b1d 5fbd fc36 5dbd 2829 9fbd fd9b 96bb
00000220: 7d95 9abc 857b b8bd 15bc ae3d 0327 87bd
00000230: 62f6 edbc 3984 b63d f0ae af3d e09d 733c
00000240: 27d6 5a3c 7e10 ce3b 5ff5 363d 7f15 1d3c
00000250: e7cc 5c3c ad3c b03b d7fa 8bbc df2f 86bd
00000260: b5e0 83bd a2c8 90bd 73e3 29bd dd7c 2ebd
00000270: d4e5 163c 1aba 87bd ce6c 103d 9828 a23d
00000280: c4e6 953d 0b28 a4bd 58aa 333d 2df2 be3d
00000290: adf3 673d 8253 6139 a2ec 8dbd 1af4 513c
000002a0: af7e ec3a 25db 823c 6d74 913d ee48 fd3b
000002b0: d06c 923d 6946 a53c b79a a2bc c982 c4bb
000002c0: 54f9 20bd 9648 5dbd 7150 9f3c b761 8d3d
000002d0: 8364 8ebc 993f aa3d 0140 9ebd c994 903d
000002e0: 2ebe 90bd 6d3f 0f3d 11c9 a73d 0ead 90bb
000002f0: feaf 3a3c 146b 8c3d 9a91 be3d a151 00bc
00000300: 8c80 5c3c 9434 7e3d 6545 4c3d 55af b63d
00000310: 9264 ca3d bbd9 6d3d 2e4e 9bbd f0c5 a43d
00000320: 84ca 98bd e76c e3bc b3f3 9cbd a116 983b
00000330: a4d4 ffbc 691b b63d 7ab8 a9bd 16f7 16bc
00000340: eb96 903d abfe d03d fc35 bf3d 1613 163d
00000350: c162 97bd a760 aebd aed3 14bd c04a b33a
00000360: 5aff 2e3d 61d9 98bb 6ca9 86bd 7408 bb3d
00000370: 4d22 0f3d 08f6 853d 281b 9a3d 9efc 81bd
00000380: d846 63bd 7b59 653c 8f3c 5c3a d445 07bd
00000390: 4f8c ef3b bf49 d0bc 31a2 b63c 1297 56bd
000003a0: 63cd 5abd 964b e1ba afa3 703d fdbb 2ebd
000003b0: 6177 513c a45c 093c 4768 c53c ae52 bdbd
000003c0: 9f6a bb3d 1b52 8a3d 2b8a 9fbd ca54 6dbd
000003d0: f5ab 2f3b 4dd7 dcbb f52e 1dbb c0c1 4f3c
000003e0: dbfe 8a3c be5a 803d fa03 283d c49f b1bd
000003f0: ed09 a4bc 2ea1 813d 116c 2fbd dfb6 7cbd

layers.0.bias f4 [16]
-0.022719061 -0.013031214 0.039186154 0.03998097 -0.089288704 0.04469246 0.016674757 -0.01582584
-0.09111892 0.0661624 -0.072537884 -0.07113354 -0.056056645 0.033506464 -0.039849058 0.0012612762
00000000: 531d babc df80 55bc a981 203d 16c3 233d
00000010: ffdc b6bd 710f 373d 8099 883c 31a5 81bc
00000020: 8e9c babd 2780 873d be8e 94bd 76ae 91bd
00000030: a79b 65bd 133e 093d c438 23bd 6851 a53a

layers.2.weight f4 [8, 16]
-0.06485938 0.13312978 0.21325146 -0.041000802 -0.1568904 -0.100323066 -0.02228105 0.16657594
-0.24214667 -0.19636059 0.039586008 -0.22672254 0.08808178 0.18731512 0.2066044 0.21236277
-0.03494194 -0.043380022 0.021463752 0.046042174 -0.102834165 -0.06915459 -0.17062712 -0.07232657
-0.23031172 -0.14100105 0.023734361 -0.20297933 -0.11569074 -0.23947388 0.116680026 -0.05815053
-0.084113955 0.20631513 -0.035349112 0.013991465 0.2290117 -0.07469367 0.21967155 -0.18406954
0.057075437 0.1485452 -0.018763304 0.12648715 0.13636947 -0.04475246 0.24287441 -0.17797443
-0.10082155 0.22318712 -0.07798727 0.07767944 -0.16973612 0.028558046 -0.23741028 0.22860369
0.10430216 -0.24325798 -0.028755546 -0.13239029 0.1984624 0.118291534 -0.2198214 0.03851658
-0.020007804 -0.092674606 -0.08095418 -0.11883531 0.17584544 0.22136566 0.16918832 -0.13740408
-0.0009588931 -0.10332749 0.107005954 0.12116106 -0.24619552 0.072312355 0.061058097 0.042035133
0.04706103 -0.12068527 0.07119709 -0.01883021 0.19362438 -0.08161523 0.12701479 -0.035990387
0.2230685 -0.15134643 0.05850789 -0.051950686 -0.06519537 -0.14784172 0.19553143 -0.011099696
0.09619946 -0.16894424 -0.19654515 0.037667308 0.13536878 0.22012992 0.15562865 -0.14507023
-0.23131639 0.17417283 -0.22779918 -0.050750285 0.10278076 0.17903545 0.25427553 -0.025919884
-0.21829644 0.15126014 -0.24340576 -0.22863322 -0.13065305 0.010054082 -0.2070685 0.24740928
0.23548162 -0.113737494 -0.010774136 -0.19317985 -0.21066922 -0.039016604 0.055342764 0.0074563622
00000000: ffd4 84bd 2c53 083e 975e 5a3e 75f0 27bd
00000010: e1a7 20be 2e76 cdbd c086 b6bc e292 2a3e
00000020: 4cf5 77be c012 49be f024 223d f429 68be
00000030: 3864 b43d 89cf 3f3e 1b90 533e a075 593e
00000040: 481f 0fbd 40af 31bd c0d4 af3c b896 3c3d
00000050: b89a d2bd eca0 8dbd e0b8 2ebe f41f 94bd
00000060: d6d6 6bbe 9462 10be 906e c23c d0d9 4fbe
00000070: 44ef ecbd a438 75be f0f5 ee3d 402f 6ebd
00000080: f043 acbd 4644 533e 3bca 10bd 753c 653c
00000090: 0b82 6a3e fff8 98bd 94f1 603e ba7c 3cbe
000000a0: efc7 693d 3c1c 183e 80b5 99bc d985 013e
000000b0: 70a4 0b3e 5b4e 37bd 12b4 783e ee3e 36be
000000c0: 877b cebd 2a8b 643e cab7 9fbd 6616 9f3d
000000d0: 4ecf 2dbe 90f2 e93c ae1b 73be 1617 6a3e
000000e0: 5f9c d53d 9f18 79be c090 ebbc 5291 07be
000000f0: ba39 4b3e d542 f23d dc18 61be 90c3 1d3d
00000100: 68e7 a3bc 2fcc bdbd 4ecb a5bd ed5f f3bd
00000110: d410 343e aead 623e b43f 2d3e a8b3 0cbe
00000120: 3a5e 7bba 5d9d d3bd f025 db3d 4a23 f83d
00000130: ae1a 7cbe 8018 943d 0e18 7a3d 082d 2c3d
00000140: 11c3 403d d729 f7bd c8cf 913d d041 9abc
00000150: 7845 463e e325 a7bd 2a10 023e a86a 13bd
00000160: 126c 643e 8ffa 1abe f8a5 6f3d 3eca 54bd
00000170: 2685 85bd d263 17be 6439 483e 80db 35bc
00000180: 3904 c53d b8ff 2cbe 2243 49be 0949 1a3d
00000190: 1d9e 0a3e bd69 613e 1e5d 1f3e 4a8d 14be
000001a0: 34de 6cbe 5d5a 323e 3044 69be 88df 4fbd
000001b0: b87e d23d 1255 373e 6730 823e f055 d4bc
000001c0: 1a89 5fbe f0e3 1a3e 5c3f 79be d41e 6abe
000001d0: eac9 05be e0b9 243c c409 54be dc58 7d3e
000001e0: 1822 713e 34ef e8bd 0086 30bc f0d0 45be
000001f0: acb9 57be e0cf 1fbd 18af 623d 8054 f43b

layers.2.bias f4 [8]
-0.07210855 0.020839185 -0.23264268 0.042289913 0.07067984 0.08736564 -0.17870148 -0.11121088
00000000: a6ad 93bd f0b6 aa3c e239 6ebe 3038 2d3d
00000010: 98c0 903d c2ec b23d 85fd 36be 88c2 e3bd

layers.4.weight f4 [1, 8]
0.07792153 0.23337679 0.20623969 -0.028292984 -0.044485357 -0.058134906 0.11977987 0.29025358
00000000: 5395 9f3d 53fa 6e3e 7f30 533e b0c6 e7bc
00000010: 4736 36bd de1e 6ebd 264f f53d 1e9c 943e
