p1/models/model.ckpt (torch, 10199 bytes, 5 tensors)

layers.0.weight f4 [16, 117]
-0.02449261 -0.04296142 0.01877391 0.06264469 -0.08069383 -0.07385138 -0.07155702 0.07407044
0.028175587 -0.047951397 0.031085832 -0.063589536 0.08516299 -0.0030613423 -0.058227055 -0.091540836
-0.041528326 0.06742994 -0.0126985265 0.0011421181 0.042299822 -0.038186856 0.027310193 -0.08671449
-0.047643702 0.02593926 -0.029510835 -0.0811678 -0.08098979 -0.020879718 0.061833303 0.0044986885
0.060410593 -0.07421634 0.06468874 0.027784785 -0.025245316 0.03577988 -0.031385556 0.07374534
-0.030102283 -0.001267525 0.014534278 -0.05830087 -0.039970003 -0.02592946 -0.06888425 -0.009533775
-0.028874269 -0.08850983 -0.07530097 0.03430518 -0.0846605 -0.025853725 -0.07433603 0.03704717
0.07642898 -0.03947437 -0.078980215 0.022726126 0.05936982 -0.07688952 -0.08186995 -0.04821787
-0.03007937 0.021415431 -0.023752326 -0.05841268 0.018578872 -0.06327975 -0.07530834 0.0034412327
0.058736846 0.0054489765 0.08470335 -0.08537115 -0.08607302 -0.014902365 0.07993867 -0.010190323
-0.045169696 0.08114299 0.0019578412 -0.027064966 -0.03086439 -0.06716443 0.0701123 0.07925454
0.066004395 -0.052556247 -0.08392291 0.03437092 -0.056725897 0.07286665 0.08515611 0.08273822
-0.07751307 0.013921648 0.027912453 -0.018349472 -0.07026738 -0.052750457 -0.06244645 -0.016489541
-0.067281224 0.068689816 0.091294974 -0.035097077 -0.0462482 -0.07167218 0.0019575437 0.0032148634
0.088010766 -0.034495514 -0.08951305 0.06915002 -0.05806813 -0.17648084 -0.02583024 0.075328656
-0.060794525 0.05874056 0.07560211 0.085107096 0.0567525 -0.020070588 -0.040008053 0.079176866
-0.031862814 0.0332706 0.017252686 0.081981495 -0.07750717 0.061922785 0.05642364 0.031092573
-0.08387011 -0.030489916 0.033794727 0.06553731 -0.066597894 -0.08689334 0.07948524 0.040172424
0.007947716 0.033015724 0.061631512 0.0107993 0.07004277 0.07704603 0.0018764553 0.058470037
0.03527996 -0.073663235 0.009251885 0.017704684 0.066915594 -0.027226163 -0.015394114 -0.08281425
-0.018025331 0.06803569 -0.06758157 -0.005175338 -0.05278688 0.009148467 0.073910765 -0.026397035
-0.075899854 -0.052316584 0.04753083 -0.0659582 -0.08507161 -0.093691014 0.06808969 0.024603633
0.051566854 0.0173704 0.030997518 0.0670829 -0.03353613 -0.013733612 0.020120712 -0.030549329
0.085679434 0.021985922 -0.04612077 -0.033646733 -0.06745751 -0.041107163 0.07732978 -0.071876034
-0.06780629 -0.08894314 -0.045654636 -0.04306246 -0.008350625 0.07179574 0.03452077 0.070123844
0.058695275 0.07677205 0.041341867 -0.019774413 -0.037469048 0.07518414 -0.090941705 -0.032406338
0.037245404 -0.06174829 0.005397375 0.02184043 -0.08239289 0.08716249 -0.07455275 0.08105184
0.07368612 0.08397418 -0.05017087 -0.0738334 0.05966833 0.08818771 -0.07181388 -0.062243704
-0.027178336 -0.06591667 0.059006453 0.005416477 0.012124658 0.010455358 -0.07948149 0.0077038873
0.086404145 0.06895894 -0.11372087 0.022102486 -0.043897588 -0.04527091 0.029675504 -0.04527412
-0.031631548 -0.036173567 -0.006322144 0.08190458 -0.05249935 0.022109898 0.040658634 0.04521816
-0.03943072 0.068176314 0.037093777 -0.017796962 -0.028162256 0.068521686 0.03474018 -0.020029576
00000000: baa4 c8bc 50f8 2fbd becb 993c dc4b 803d
00000010: cf42 a5bd 643f 97bd 7d8c 92bd 3eb2 973d
00000020: 7dd0 e63c af68 44bd b7a7 fe3c 3b3b 82bd
00000030: ef69 ae3d cda0 48bb 7e7f 6ebd c379 bbbd
00000040: 9b19 2abd b518 8a3d 7b0d 50bc 20b3 953a
00000050: 9442 2d3d d269 1cbd a0b9 df3c 5e97 b1bd
00000060: 0b26 43bd 927e d43c b5c0 f1bc 4e3b a6bd
00000070: fadd a5bd f10b abbc eb44 7d3d bc69 933b
00000080: 1971 773d bdfe 97bd 887b 843d eb9c e33c
00000090: 44cf cebc ec8d 123d 248e 00bd cc07 973d
000000a0: 1099 f6bc 1523 a6ba 2e21 6e3c e5cc 6ebd
000000b0: 96b7 23bd 056a d4bc 3013 8dbd 8d33 1cbc
000000c0: bb89 ecbc a444 b5bd 6537 9abd 9783 0c3d
000000d0: 7c62 adbd 31cb d3bc 7d3d 98bd c6be 173d
000000e0: cc86 9c3d e1af 21bd 61c0 a1bd 242c ba3c
000000f0: c52d 733d 4178 9dbd 6fab a7bd 1a80 45bd
00000100: 0369 f6bc 6a6f af3c 3d94 c2bc 2242 6fbd
00000110: b832 983c d098 81bd 423b 9abd 4e86 613b
00000120: 0c96 703d 548d b23b f378 ad3d 12d7 aebd
00000130: 0d47 b0bd 0d29 74bc e3b6 a33d 50f5 26bc
00000140: dc03 39bd 4c2e a63d 204f 003b 59b7 ddbc
00000150: 51d7 fcbc 818d 89bd 0a97 8f3d 3450 a23d
00000160: 502d 873d 3845 57bd c6df abbd 86c8 0c3d
00000170: 6a59 68bd 1c3b 953d 5466 ae3d a872 a93d
00000180: 2cbf 9ebd a017 643c a8a8 e43c a251 96bc
00000190: 58e8 8fbd dd10 58bd d9c7 7fbd 1315 87bc
000001a0: bdca 89bd 3fad 8c3d dcf8 ba3d f4c1 0fbd
000001b0: c16e 3dbd ddc8 92bd 224a 003b 75b0 523b
000001c0: fd3e b43d 2b4b 0dbd 9e52 b7bd 879e 8d3d
000001d0: d9d8 6dbd 65b7 34be f199 d3bc e945 9a3d
000001e0: ae03 79bd f199 703d 47d5 9a3d a14c ae3d
000001f0: 4f75 683d 136b a4bc 7cdf 23bd 7b27 a23d
00000200: 9582 02bd c146 083d 8155 8d3c eae5 a73d
00000210: 14bc 9ebd bfa2 7d3d 7a1c 673d dab5 fe3c
00000220: 18c4 abbd fdc5 f9bc 576c 0a3d 6d38 863d
00000230: 7a64 88bd 23f5 b1bd 28c9 a23d d78b 243d
00000240: 2337 023c 7f3b 073d 5371 7c3d 8cef 303c
00000250: 9572 8f3d 4fca 9d3d 64f3 f53a 477e 6f3d
00000260: b881 103d c0dc 96bd 3895 173c 6a09 913c
00000270: 0b0b 893d 6709 dfbc 9837 7cbc 849a a9bd
00000280: dca9 93bc 4c56 8b3d 3568 8abd e295 a9bb
00000290: 0e37 58bd 74e3 153c 875e 973d 983e d8bc
000002a0: 6271 9bbd ea49 56bd b0af 423d 1815 87bd
000002b0: 063a aebd 13e1 bfbd 9b72 8b3d 8f8d c93c
000002c0: c437 533d 5e4c 8e3c 82ee fd3c c262 893d
000002d0: 2e5d 09bd f202 61bc 31d4 a43c 9642 fabc
000002e0: b378 af3d d21b b43c 22e9 3cbd 28d1 09bd
000002f0: 2a27 8abd fc5f 28bd 135f 9e3d be33 93bd
00000300: 06de 8abd d227 b6bd 5b00 3bbd 4362 30bd
00000310: 0fd1 08bc a509 933d a765 0d3d 179d 8f3d
00000320: 756a 703d aa3a 9d3d 1756 293d f3fd a1bc
00000330: 2579 19bd 24fa 993d a53f babd 82bc 04bd
00000340: a38e 183d c6eb 7cbd 77dc b03b b4ea b23c
00000350: 9abd a8bd 3f82 b23d 1daf 98bd 82fe a53d
00000360: c0e8 963d a8fa ab3d f87f 4dbd f735 97bd
00000370: c766 743d c29b b43d 2813 93bd 41f3 7ebd
00000380: 1aa5 debc 52ff 86bd c0b0 713d b47c b13b
00000390: 80a6 463c f34c 2b3c 31c7 a2bd e470 fc3b
000003a0: a8f4 b03d 583a 8d3d 7de6 e8bd 4610 b53c
000003b0: f5cd 33bd fd6d 39bd 0b1a f33c 5b71 39bd
000003c0: 1590 01bd bc2a 14bd fd29 cfbb 97bd a73d
000003d0: 8f09 57bd d11f b53c ab89 263d ad36 393d
000003e0: 1b82 21bd 06a0 8b3d a5ef 173d efca 91bc
000003f0: 88b4 e6bc 1955 8c3d b84b 0e3d 1115 a4bc

layers.0.bias f4 [16]
0.00911865 0.036030285 0.023078354 -0.018547643 -0.033662774 -0.022351466 0.08889936 -0.055569787
0.014607544 0.0600915 0.017870063 0.048185244 0.07650998 0.026493315 0.07548893 -0.074171565
00000000: 6466 153c 7e94 133d d10e bd3c 3af1 97bc
00000010: fae1 09bd 6c1a b7bc de10 b63d 259d 63bd
00000020: 7b54 6f3c 8122 763d 3d64 923c e45d 453d
00000030: 44b1 9c3d 8208 d93c f199 9a3d 43e7 97bd

layers.2.weight f4 [8, 16]
-0.024969608 -0.08368844 0.09434719 -0.22589673 -0.011429399 -0.17701659 0.17044336 0.0100787245
-0.075940095 0.1968258 -0.08027074 0.18687999 0.049303412 0.05018276 0.108449414 -0.22728577
0.22777042 0.10035407 0.15442342 -0.08396692 0.13728467 0.10090143 0.04580366 0.058197927
-0.19375077 -0.083217144 0.12519678 -0.237894 0.19716743 -0.19357619 0.16822506 -0.10616264
-0.1462912 -0.21905772 0.12096014 0.035144154 0.027271092 -0.13510199 0.21185018 0.10653916
-0.12439592 -0.16991453 -0.19323733 0.09151845 -0.20780459 0.19318372 -0.092862025 -0.0009882046
0.1389277 0.1289264 0.13525617 -0.0871859 0.19429454 -0.11824419 -0.20467661 -0.1584245
-0.2001013 0.14268526 0.029055983 -0.098612435 0.13262686 0.0028362274 0.007888366 0.22452825
-0.24040976 0.15918575 -0.1119528 0.07824974 -0.14607492 0.0846898 0.13379611 -0.18348166
-0.077289015 0.020543346 0.062212974 -0.018786829 -0.11213085 -0.03278804 -0.0035737837 0.1369506
0.100603074 0.057632517 -0.019156918 0.0012210626 0.1605357 0.038161106 0.008717767 0.16239516
-0.14782198 0.09951034 -0.16707838 0.08523593 0.10664737 -0.054692924 0.18737404 0.014583896
0.14315099 -0.15980107 -0.18830863 -0.16100031 -0.17931777 -0.17193772 -0.1547148 -0.03719291
0.09638771 -0.07595444 0.04578668 -0.07710096 -0.12847245 -0.03927952 -0.18507126 -0.1150457
0.06374231 0.20079193 -0.115488395 0.13608205 -0.087231755 0.19485092 -0.088983536 0.20192531
0.123859555 0.069423154 0.028542936 0.2466448 0.20296353 -0.23328224 -0.16028343 0.16239473
00000000: 108d ccbc d864 abbd 1939 c13d 7951 67be
00000010: 6042 3bbc d643 35be b488 2e3e 3c21 253c
00000020: 7b86 9bbd b48c 493e fc64 a4bd 785d 3f3e
00000030: 60f2 493d 708c 4d3d ba1a de3d 9abd 68be
00000040: a63c 693e 6f86 cd3d 2c21 1e3e d9f6 abbd
00000050: 5a94 0c3e 69a5 ce3d 9e9c 3b3d f360 6e3d
00000060: 9a66 46be c06d aabd 9633 003e 7c9a 73be
00000070: 42e6 493e d638 46be 3143 2c3e cc6b d9bd
00000080: 5ccd 15be ab50 60be f3b9 f73d 51f3 0f3d
00000090: a067 df3c 2d58 0abe 41ef 583e 3431 da3d
000000a0: 4ac3 febd 13fe 2dbe 02e0 45be 066e bb3d
000000b0: baca 54be f4d1 453e 722e bebd a586 81ba
000000c0: 1043 0e3e 4805 043e 9880 0a3e 858e b2bd
000000d0: 26f5 463e 032a f2bd bf96 51be 083a 22be
000000e0: 5be7 4cbe 161c 123e d006 ee3c 51f5 c9bd
000000f0: 56cf 073e 00e0 393b 343e 013c bcea 653e
00000100: fa2d 76be 9701 233e 8247 e5bd 6641 a03d
00000110: aa94 15be d971 ad3d d901 093e 9ee2 3bbe
00000120: b449 9ebd 854a a83c 08d3 7e3d d6e6 99bc
00000130: dca4 e5bd c04c 06bd 2436 6abb c73c 0c3e
00000140: fc08 ce3d 1310 6c3d f8ee 9cbc 100c a03a
00000150: 7863 243e d24e 1c3d f7d4 0e3c eb4a 263e
00000160: a55e 17be 14cc cb3d 9816 2bbe 2d90 ae3d
00000170: f069 da3d b005 60bd fbde 3f3e 4bf1 6e3c
00000180: 2c96 123e e4a2 23be fad3 40be 44dd 24be
00000190: 149f 37be 7110 30be 8e6d 1ebe 9857 18bd
000001a0: eb66 c53d 008e 9bbd d08a 3b3d 1ce7 9dbd
000001b0: 488e 03be 90e3 20bd 5283 3dbe 149d ebbd
000001c0: 548b 823d 669c 4d3e 2e85 ecbd 1859 0b3e
000001d0: 90a6 b2bd 0087 473e 003d b6bd 82c5 4e3e
000001e0: 14aa fd3d ba2d 8e3d e0d2 e93c 7490 7c3e
000001f0: acd5 4f3e 8ae1 6ebe 5721 24be ce4a 263e

layers.2.bias f4 [8]
-0.16260691 -0.09548639 -0.15642561 -0.17888875 0.09784816 -0.14090337 0.08072358 -0.07763955
00000000: 6d82 26be 5e8e c3bd 092e 20be 9d2e 37be
00000010: 9e64 c83d f948 10be 6852 a53d 7c01 9fbd

layers.4.weight f4 [1, 8]
0.11098319 -0.14550708 0.016590528 -0.13847463 0.06709722 0.021578709 -0.3276031 0.22754557
00000000: 284b e33d cfff 14be dce8 873c 4bcc 0dbe
00000010: 446a 893d d5c5 b03c 98bb a7be b501 693e
