p1/models/model.ckpt (torch, 16799 bytes, 3 tensors)

layers.0.weight f4 [32, 117]
000000 30 71 81 3c 80 31 8a bd d3 7b 7c bd 50 17 82 3b
       0.015801042 -0.067477226 -0.061641525 0.003970064
000010 41 aa d5 3d 87 e4 ff bc e3 35 b5 3d 0b 37 e0 3c
       0.10432864 -0.0312369 0.08848169 0.027369997
000020 85 d2 46 bd 0f 20 86 bb 63 6d 0f 3d 8b 74 92 3d
       -0.04854061 -0.004093177 0.03501643 0.07151135
000030 b4 de 88 3d ad ac 8c bd ca 5b 5c 3d 07 45 fc 3c
       0.06683102 -0.06868873 0.053798474 0.030794634
000040 da c3 45 bd b9 3c 64 bd 03 dc 77 3d 6e de 97 ba
       -0.04828248 -0.055721972 0.060512554 -0.0011586675
000050 64 f0 1f 3d 6c 1e 7a 3d 83 aa 88 bd d0 67 54 3d
       0.039047614 0.06106417 -0.066731475 0.051856816
000060 1f 24 cb 3d 47 ae a3 3d 42 30 0c bd d0 ba 99 bd
       0.09918999 0.07992225 -0.03422571 -0.07506335
000070 6f ec 5e bd 88 fd ce 3c 89 cb 5f 3c 4b c1 cc bc
       -0.0544247 0.025267377 0.013659366 -0.024994513
000080 47 dd 33 3d e6 9d ad bd f7 a9 41 bd d8 ec 02 bc
       0.0439122 -0.08477382 -0.04728123 -0.007991038
000090 e6 2f 1c bd cd a1 c1 3d ff 53 b9 3d ce 92 d0 3d
       -0.038131617 0.09454689 0.09049224 0.10184251
0000a0 4f 55 82 3d 59 71 89 3d 4f c2 56 3d eb 9d 0e bd
       0.063639276 0.067110725 0.0524314 -0.03481857
0000b0 0d 22 cc 3c 8a 2f c4 3d 0e 06 53 3d 6b 3e ba 3d
       0.02491858 0.0957938 0.051519446 0.090939365
0000c0 0c 52 48 3d e5 db 2c 3c d3 09 97 3d e1 83 23 3c
       0.04890637 0.010550474 0.07374921 0.009980173
0000d0 82 83 e8 bc 1d 7d ce 3d 11 31 e1 3c d8 01 31 3c
       -0.02838302 0.10082457 0.027489217 0.010803662
0000e0 78 82 33 bc 77 f4 83 3d 7c 06 88 3d a6 e4 c2 bc
       -0.010956399 0.06443112 0.06641862 -0.023790669
0000f0 fb 39 82 bd 5b 90 90 bc c3 82 81 bc a5 19 4f 3d
       -0.06358715 -0.017646959 -0.015809422 0.050561566
000100 55 ee 6c bd 5e c0 15 bd 27 d7 84 bd fc 5d 7f 3d
       -0.05784448 -0.03656041 -0.064863496 0.06234549
000110 5f 70 84 bd 3a 45 88 bd ab 75 99 3d a1 64 f6 bc
       -0.064667456 -0.06653829 0.074931465 -0.03007728
000120 57 bb a6 bd 40 31 a6 3d 98 c5 96 3d e4 c0 ea bc
       -0.08141201 0.081148624 0.07361907 -0.02865643
000130 8a fe 99 bd a1 d2 98 3d 42 7b 25 bd 3f 3f 39 3d
       -0.075192526 0.07462049 -0.04040075 0.04522633
000140 6b 8a c4 3b ed 62 7b bd 1a 7f b3 3d 24 68 8d bd
       0.005997946 -0.06137364 0.08764477 -0.06904629
000150 e7 75 a9 bd bb 46 cb 3d 23 ad f9 3c f5 a5 c3 3c
       -0.08274441 0.099256 0.030478066 0.023882845
000160 d8 ad 8a 3d 99 24 77 3d c8 b4 51 bd c0 8a c8 bb
       0.06771439 0.060337637 -0.051197797 -0.006120056
000170 14 3b 95 bd cf f8 ae bc 6d 20 8c 3d 2c 29 50 bc
       -0.07286659 -0.021358876 0.06842122 -0.012705129
000180 94 1f 0b bd 40 95 b5 bc a3 c0 88 3d c3 bf 2f bc
       -0.033965662 -0.022165895 0.066773675 -0.010726872
000190 06 31 8c bc 4b 82 ff bc 31 67 be 3d 8f 1e 8d 3d
       -0.01711322 -0.031190058 0.09297026 0.06890594
0001a0 a9 c4 31 3c 50 11 00 bd ce 1f 7d 3c c5 70 83 3c
       0.01085011 -0.03126651 0.015449477 0.016044984
0001b0 75 24 26 3d 29 71 9f 3c 4d f3 71 bd f1 00 ad bd
       0.040562112 0.019463139 -0.05906992 -0.08447445
0001c0 32 ff 08 bc b4 fd 81 3d 9a ad b5 3d 64 24 a6 3d
       -0.008361625 0.06347218 0.088710025 0.0811241
0001d0 3d 2d 8a bd 22 e7 9e bd ce a2 45 bd b8 39 77 bd
       -0.0674691 -0.07758929 -0.048250966 -0.06035778
0001e0 54 eb 24 3d 2b cc a7 bb 8b 82 15 bd 02 72 19 3d
       0.04026349 -0.0051207743 -0.03650145 0.037462242
0001f0 04 ce 1b bd 44 27 af 3d 8c b2 90 3d a4 5d 12 3d
       -0.03803827 0.08552411 0.07065305 0.035733834
000200 dc e0 ac 3d c5 26 e7 bc d8 b4 97 3d dc 3b 49 3d
       0.08441326 -0.028216729 0.0740754 0.049129352
000210 9b 5d 55 bd a8 37 3f bd da b5 78 bd e9 36 ad bd
       -0.052091222 -0.046683937 -0.060720302 -0.08457739
000220 11 af 2b 3d 9a 36 90 3d 86 a2 a0 3d f9 78 b3 3d
       0.041915003 0.070416644 0.07843499 0.08763308
000230 f0 aa 12 bd 77 5b a8 bb c5 f8 db bc 6f cc 91 bc
       -0.03580755 -0.0051378566 -0.026852021 -0.017797677
000240 1a b6 e5 3c 7a 7a 99 3d 99 15 c3 3c e2 1c 87 bc
       0.028040934 0.07494064 0.02381401 -0.016493265
000250 44 41 bb bd de 71 ee 3c ae 03 03 3d 34 4f 65 bd
       -0.09143308 0.02910703 0.03198593 -0.055983737
000260 d7 5c 36 3d 67 e1 6f bd c8 30 b7 3d 2f 8b 88 3d
       0.044522133 -0.05856457 0.08944851 0.06667172
000270 05 47 50 bd a4 06 83 bd e0 7b 2f bd eb cf 8f bd
       -0.05084898 -0.06397751 -0.042842746 -0.07022079
000280 7f 4f 3b 3d 7a f9 16 3b 3c d6 8d 3c 91 39 9f bd
       0.04573011 0.0023036883 0.017314069 -0.07774652
000290 44 10 75 3d 0b 7f 07 3d 64 48 9b 3d 66 d6 ad 3d
       0.059829965 0.033080142 0.07582167 0.08488159
0002a0 5f 88 f7 3c 9e 4a cb bc b8 b9 08 bd dd ed 47 3c
       0.030216394 -0.024815854 -0.03338024 0.012202707
0002b0 87 01 b9 bd 7a 26 87 bd 73 f7 4c bd 63 54 21 3c
       -0.090334944 -0.06599136 -0.050040673 0.0098467795
0002c0 93 ab 63 3d 57 18 ad 3d 62 fe f3 bc 64 15 85 3d
       0.055583548 0.08451908 -0.029784385 0.064982206
0002d0 bf a1 9b bd 7d 14 8a bd a1 e6 fe bc a0 c1 04 3d
       -0.0759921 -0.06742189 -0.031115832 0.032411218
0002e0 9a 53 b0 3d 6a 20 81 bd d7 f3 f4 bb 52 71 b9 bd
       0.08609696 -0.063050106 -0.007475357 -0.09054817
0002f0 2c fb b4 bc 43 42 5d 3d cd d4 ad bd 39 4b 5a 3c
       -0.022092424 0.05401827 -0.08487854 0.013323599
000300 da 13 1e 3d 82 02 b6 3d 5a 49 93 bd 91 04 b0 bd
       0.03859315 0.08887197 -0.07191725 -0.08594621
000310 e1 a6 7b bb e5 69 a6 bd a7 24 77 bd 52 72 83 3d
       -0.0038399028 -0.081256665 -0.06033769 0.06418289
000320 f8 a3 d7 bc ef 00 1c bb 17 77 25 3d 33 9e ca bc
       -0.026323304 -0.0023804267 0.040396776 -0.024733638
000330 11 be b3 3c 76 eb 25 3d 31 69 8b bd 00 7a 90 bd
       0.021941217 0.040507756 -0.06807173 -0.0705452
000340 ea a0 85 3b 87 4e bc bd e4 45 9d bd ba a2 aa 3d
       0.0040780203 -0.091946654 -0.07679346 0.08331819
000350 bd a5 a4 3d 9c 02 98 bd fa 6d b9 3d e9 4a b1 bd
       0.080394246 -0.07422373 0.090541795 -0.08656866
000360 58 3f 15 bd 05 70 a4 bd 7c c6 36 3d 58 43 f5 bb
       -0.036437362 -0.080291785 0.044622883 -0.0074848346
000370 08 ac 9c bd 72 70 78 bb f4 2c 39 3d 5f ec 37 3d
       -0.0765 -0.003790882 0.045208886 0.044903155
000380 70 d7 b8 bd f4 e0 8d bd f6 d2 2f 3d ad fb 1f bd
       -0.090254664 -0.06927672 0.042925797 -0.039058376
000390 0b 98 18 bd a2 50 ca bc 67 b7 8d 3c ae 50 52 bb
       -0.037254374 -0.024696652 0.017299367 -0.0032091546
0003a0 a2 19 e4 3c 77 1c 9c 3d a1 68 7b 3d e7 f2 84 bb
       0.027844254 0.07622617 0.06137908 -0.0040572765
0003b0 a7 32 0c bd 18 e0 ce 39 50 21 40 3b 9b fd 47 3c
       -0.034227993 0.00039458345 0.002931673 0.01220646
0003c0 95 c6 6a 3d a2 9e af bd ce 43 b6 3c b9 d4 ac bc
       0.05731829 -0.08575179 0.022249129 -0.021097528
0003d0 cf 52 84 bd 30 74 c7 3c 95 64 27 bd b3 e1 81 3d
       -0.06461107 0.024347395 -0.040867407 0.06341877
0003e0 b9 fb 56 3d af be 80 3d 09 9d 4b bd 4a 4d 82 bd
       0.052486155 0.0628637 -0.049710307 -0.06362398
0003f0 ba 36 c7 bd d2 22 88 bd 40 fc 5d 3c ff 20 7f 3c
       -0.09727235 -0.066472664 0.013548911 0.015571832

layers.0.bias f4 [32]
000000 7b 8b be 3c d5 9b 9b 3d e8 68 a1 bb ec 8d 4b 3d
       0.023259869 0.07598082 -0.004925836 0.049695894
000010 2e 2b 48 3d 45 6d b6 3d 3e bc 82 bd 94 d0 ac 3c
       0.048869304 0.0890756 -0.063835606 0.021095552
000020 13 4b f6 bc 45 f5 84 bc 23 82 b2 3d d3 88 87 3d
       -0.030065095 -0.016230235 0.08716228 0.06617894
000030 6d ff 4c bd 9e 10 8c 3a 07 fe c4 3c 2a d3 33 bd
       -0.05004828 0.0010686105 0.02404691 -0.043902554
000040 4c 5e 57 3d 89 2c b1 bd d1 65 3d bd f2 7a c2 3d
       0.052580163 -0.086510725 -0.046239678 0.09496106
000050 d4 b7 be 3c ca fa ba bc 2e 15 26 bd ec 6c 8b 3b
       0.023281015 -0.022824664 -0.040547542 0.004254928
000060 a1 cc a2 3d f3 e5 81 bd 08 9d a6 3d d2 ad ae 3d
       0.07949186 -0.063426875 0.0813542 0.08529247
000070 89 f5 9a 3d f1 74 6a 3d 52 8d 9a 3d bc 9e 93 bd
       0.07566363 0.05724043 0.07546486 -0.072080106

layers.2.weight f4 [1, 32]
000000 34 d3 28 3d 53 30 31 3e 71 03 2f 3d 20 08 11 bd
       0.041217044 0.1730359 0.04272789 -0.03540814
000010 95 3d 94 bd b6 98 d7 3d 4f dd 0b be 7a c6 c9 bd
       -0.07238308 0.10527174 -0.13658641 -0.098523095
000020 da 8e 13 3e df d6 1f bd d1 f2 83 3d 5e 16 91 3c
       0.14409962 -0.039023276 0.06442798 0.01771086
000030 ae 06 62 3d 4b 28 03 be 3f 95 74 bd 4f 94 24 be
       0.05518215 -0.1280834 -0.059712645 -0.160722
000040 95 ea 07 be 44 6c 2d 3e 9c 69 0a bd b7 b3 27 3e
       -0.1327308 0.16935831 -0.033792123 0.1637715
000050 b7 96 d6 bc 44 53 0e 3e fb db a3 3d f1 7d c4 3c
       -0.026194913 0.13898951 0.08000942 0.023985835
000060 d7 48 ba bd 5d 58 c8 3d bc e9 a2 3d a4 ad 09 3e
       -0.09095924 0.09782479 0.079547375 0.13445145
000070 28 b4 34 3e 69 e9 0a 3e 42 02 10 be 3d ce e5 bd
       0.17646849 0.13565601 -0.14063361 -0.112209775
